…
Batik_793.jpg img added (500, 452) total length 22
Batik_631.jpg img added (499, 456) total length 23
Batik_761.jpg img added (499, 448) total length 24
Batik_754.jpg img added (500, 422) total length 25
Batik_512.jpg img added (500, 500) total length 26
Batik_760.jpg img added (499, 452) total length 27
Batik_756.jpg img added (500, 435) total length 28
Batik_514.jpg img added (500, 500) total length 29
Batik_525.jpg img added (500, 500) total length 30
Batik_868.jpg img added (499, 443) total length 31
Batik_524.jpg img added (500, 500) total length 32
<class 'network.NetG'> Discriminator(
  (main): Sequential(
    (0): Conv2d(3, 64, kernel_size=(5, 5), stride=(2, 2), padding=(2, 2))
    (1): LeakyReLU(negative_slope=0.2, inplace=True)
    (2): Conv2d(64, 128, kernel_size=(5, 5), stride=(2, 2), padding=(2, 2))
    (3): BatchNorm2d(128, eps=1e-05, momentum=0.1, affine=True, track_running_stats=True)
    (4): LeakyReLU(negative_slope=0.2, inplace=True)
    (5): Conv2d(128, 256, kernel_size=(5, 5), stride=(2, 2), padding=(2, 2))
    (6): BatchNorm2d(256, eps=1e-05, momentum=0.1, affine=True, track_running_stats=True)
    (7): LeakyReLU(negative_slope=0.2, inplace=True)
    (8): Conv2d(256, 512, kernel_size=(5, 5), stride=(2, 2), padding=(2, 2))
    (9): BatchNorm2d(512, eps=1e-05, momentum=0.1, affine=True, track_running_stats=True)
    (10): LeakyReLU(negative_slope=0.2, inplace=True)
    (11): Conv2d(512, 1, kernel_size=(5, 5), stride=(2, 2), padding=(2, 2))
    (12): Sigmoid()
  )
)
device cuda:0
Discriminator(
  (main): Sequential(
    (0): Conv2d(3, 64, kernel_size=(5, 5), stride=(2, 2), padding=(2, 2))
    (1): LeakyReLU(negative_slope=0.2, inplace=True)
    (2): Conv2d(64, 128, kernel_size=(5, 5), stride=(2, 2), padding=(2, 2))
    (3): BatchNorm2d(128, eps=1e-05, momentum=0.1, affine=True, track_running_stats=True)
    (4): LeakyReLU(negative_slope=0.2, inplace=True)
    (5): Conv2d(128, 256, kernel_size=(5, 5), stride=(2, 2), padding=(2, 2))
    (6): BatchNorm2d(256, eps=1e-05, momentum=0.1, affine=True, track_running_stats=True)
    (7): LeakyReLU(negative_slope=0.2, inplace=True)
    (8): Conv2d(256, 512, kernel_size=(5, 5), stride=(2, 2), padding=(2, 2))
    (9): BatchNorm2d(512, eps=1e-05, momentum=0.1, affine=True, track_running_stats=True)
    (10): LeakyReLU(negative_slope=0.2, inplace=True)
    (11): Conv2d(512, 1, kernel_size=(5, 5), stride=(2, 2), padding=(2, 2))
    (12): Sigmoid()
  )
)
NetG(
  (G): Sequential(
    (0): ResnetBlock(
      (conv_block): Sequential(
        (0): ReflectionPad2d((2, 2, 2, 2))
        (1): Conv2d(64, 64, kernel_size=(5, 5), stride=(1, 1))
        (2): BatchNorm2d(64, eps=1e-05, momentum=0.1, affine=True, track_running_stats=True)
        (3): ReLU(inplace=True)
        (4): ReflectionPad2d((2, 2, 2, 2))
        (5): Conv2d(64, 64, kernel_size=(5, 5), stride=(1, 1))
        (6): BatchNorm2d(64, eps=1e-05, momentum=0.1, affine=True, track_running_stats=True)
      )
    )
    (1): ResnetBlock(
      (conv_block): Sequential(
        (0): ReflectionPad2d((2, 2, 2, 2))
        (1): Conv2d(64, 64, kernel_size=(5, 5), stride=(1, 1))
        (2): BatchNorm2d(64, eps=1e-05, momentum=0.1, affine=True, track_running_stats=True)
        (3): ReLU(inplace=True)
        (4): ReflectionPad2d((2, 2, 2, 2))
        (5): Conv2d(64, 64, kernel_size=(5, 5), stride=(1, 1))
        (6): BatchNorm2d(64, eps=1e-05, momentum=0.1, affine=True, track_running_stats=True)
      )
    )
    (2): Upsample(scale_factor=2.0, mode=nearest)
    (3): Conv2d(64, 512, kernel_size=(5, 5), stride=(1, 1), padding=(2, 2))
    (4): BatchNorm2d(512, eps=1e-05, momentum=0.1, affine=True, track_running_stats=True)
    (5): ReLU(inplace=True)
    (6): ResnetBlock(
      (conv_block): Sequential(
        (0): ReflectionPad2d((2, 2, 2, 2))
        (1): Conv2d(512, 512, kernel_size=(5, 5), stride=(1, 1))
        (2): BatchNorm2d(512, eps=1e-05, momentum=0.1, affine=True, track_running_stats=True)
        (3): ReLU(inplace=True)
        (4): ReflectionPad2d((2, 2, 2, 2))
        (5): Conv2d(512, 512, kernel_size=(5, 5), stride=(1, 1))
        (6): BatchNorm2d(512, eps=1e-05, momentum=0.1, affine=True, track_running_stats=True)
      )
    )
    (7): ResnetBlock(
      (conv_block): Sequential(
        (0): ReflectionPad2d((2, 2, 2, 2))
        (1): Conv2d(512, 512, kernel_size=(5, 5), stride=(1, 1))
        (2): BatchNorm2d(512, eps=1e-05, momentum=0.1, affine=True, track_running_stats=True)
        (3): ReLU(inplace=True)
        (4): ReflectionPad2d((2, 2, 2, 2))
        (5): Conv2d(512, 512, kernel_size=(5, 5), stride=(1, 1))
        (6): BatchNorm2d(512, eps=1e-05, momentum=0.1, affine=True, track_running_stats=True)
      )
    )
    (8): Upsample(scale_factor=2.0, mode=nearest)
    (9): Conv2d(512, 256, kernel_size=(5, 5), stride=(1, 1), padding=(2, 2))
    (10): BatchNorm2d(256, eps=1e-05, momentum=0.1, affine=True, track_running_stats=True)
    (11): ReLU(inplace=True)
    (12): ResnetBlock(
      (conv_block): Sequential(
        (0): ReflectionPad2d((2, 2, 2, 2))
        (1): Conv2d(256, 256, kernel_size=(5, 5), stride=(1, 1))
        (2): BatchNorm2d(256, eps=1e-05, momentum=0.1, affine=True, track_running_stats=True)
        (3): ReLU(inplace=True)
        (4): ReflectionPad2d((2, 2, 2, 2))
        (5): Conv2d(256, 256, kernel_size=(5, 5), stride=(1, 1))
        (6): BatchNorm2d(256, eps=1e-05, momentum=0.1, affine=True, track_running_stats=True)
      )
    )
    (13): ResnetBlock(
      (conv_block): Sequential(
        (0): ReflectionPad2d((2, 2, 2, 2))
        (1): Conv2d(256, 256, kernel_size=(5, 5), stride=(1, 1))
        (2): BatchNorm2d(256, eps=1e-05, momentum=0.1, affine=True, track_running_stats=True)
        (3): ReLU(inplace=True)
        (4): ReflectionPad2d((2, 2, 2, 2))
        (5): Conv2d(256, 256, kernel_size=(5, 5), stride=(1, 1))
        (6): BatchNorm2d(256, eps=1e-05, momentum=0.1, affine=True, track_running_stats=True)
      )
    )
    (14): Upsample(scale_factor=2.0, mode=nearest)
    (15): Conv2d(256, 128, kernel_size=(5, 5), stride=(1, 1), padding=(2, 2))
    (16): BatchNorm2d(128, eps=1e-05, momentum=0.1, affine=True, track_running_stats=True)
    (17): ReLU(inplace=True)
    (18): ResnetBlock(
      (conv_block): Sequential(
        (0): ReflectionPad2d((2, 2, 2, 2))
        (1): Conv2d(128, 128, kernel_size=(5, 5), stride=(1, 1))
        (2): BatchNorm2d(128, eps=1e-05, momentum=0.1, affine=True, track_running_stats=True)
        (3): ReLU(inplace=True)
        (4): ReflectionPad2d((2, 2, 2, 2))
        (5): Conv2d(128, 128, kernel_size=(5, 5), stride=(1, 1))
        (6): BatchNorm2d(128, eps=1e-05, momentum=0.1, affine=True, track_running_stats=True)
      )
    )
    (19): ResnetBlock(
      (conv_block): Sequential(
        (0): ReflectionPad2d((2, 2, 2, 2))
        (1): Conv2d(128, 128, kernel_size=(5, 5), stride=(1, 1))
        (2): BatchNorm2d(128, eps=1e-05, momentum=0.1, affine=True, track_running_stats=True)
        (3): ReLU(inplace=True)
        (4): ReflectionPad2d((2, 2, 2, 2))
        (5): Conv2d(128, 128, kernel_size=(5, 5), stride=(1, 1))
        (6): BatchNorm2d(128, eps=1e-05, momentum=0.1, affine=True, track_running_stats=True)
      )
    )
    (20): Upsample(scale_factor=2.0, mode=nearest)
    (21): Conv2d(128, 64, kernel_size=(5, 5), stride=(1, 1), padding=(2, 2))
    (22): BatchNorm2d(64, eps=1e-05, momentum=0.1, affine=True, track_running_stats=True)
    (23): ReLU(inplace=True)
    (24): ResnetBlock(
      (conv_block): Sequential(
        (0): ReflectionPad2d((2, 2, 2, 2))
        (1): Conv2d(64, 64, kernel_size=(5, 5), stride=(1, 1))
        (2): BatchNorm2d(64, eps=1e-05, momentum=0.1, affine=True, track_running_stats=True)
        (3): ReLU(inplace=True)
        (4): ReflectionPad2d((2, 2, 2, 2))
        (5): Conv2d(64, 64, kernel_size=(5, 5), stride=(1, 1))
        (6): BatchNorm2d(64, eps=1e-05, momentum=0.1, affine=True, track_running_stats=True)
      )
    )
    (25): ResnetBlock(
      (conv_block): Sequential(
        (0): ReflectionPad2d((2, 2, 2, 2))
        (1): Conv2d(64, 64, kernel_size=(5, 5), stride=(1, 1))
        (2): BatchNorm2d(64, eps=1e-05, momentum=0.1, affine=True, track_running_stats=True)
        (3): ReLU(inplace=True)
        (4): ReflectionPad2d((2, 2, 2, 2))
        (5): Conv2d(64, 64, kernel_size=(5, 5), stride=(1, 1))
        (6): BatchNorm2d(64, eps=1e-05, momentum=0.1, affine=True, track_running_stats=True)
      )
    )
    (26): Upsample(scale_factor=2.0, mode=nearest)
    (27): Conv2d(64, 3, kernel_size=(5, 5), stride=(1, 1), padding=(2, 2))
    (28): Tanh()
  )
)
Waver(
  (learnedWN): Sequential(
    (0): Flatten()
    (1): Linear(in_features=25000, out_features=60, bias=True)
    (2): ReLU(inplace=True)
    (3): Linear(in_features=60, out_features=5000, bias=True)
  )
)
[0/1000][0/80]	LossD: 1.8318 LossG: 1.4657 D(x): 0.3573 D(G(z)): 0.3633 / 0.3375 time 2.4616
[0/1000][1/80]	LossD: 2.1869 LossG: 1.8661 D(x): 0.5611 D(G(z)): 0.5866 / 0.3051 time 0.4130
[0/1000][2/80]	LossD: 1.7474 LossG: 2.5177 D(x): 0.5077 D(G(z)): 0.4301 / 0.1743 time 0.4085
[0/1000][3/80]	LossD: 1.7376 LossG: 1.9393 D(x): 0.4947 D(G(z)): 0.4191 / 0.2514 time 0.4081
…
